my_env/Suspension_policy.pth (torch, 675527 bytes, 36 tensors)

value_mean_std.running_mean f8 [1]
000000 97 f0 fc db b0 b1 6d 40
       237.55283927347475

value_mean_std.running_var f8 [1]
000000 df 36 5c 48 5d 59 cf 40
       16050.728770758431

value_mean_std.count f8 []
000000 00 00 10 00 20 45 ff 41
       8393981953.0

running_mean_std.running_mean f8 [51]
000000 d9 b2 ed 56 cc 19 cd bf 15 dc 83 8f f8 e2 f0 bf
       -0.22734979862743535 -1.0554128271157925
000010 55 e2 e5 ac 40 a4 f9 3f a2 7b 9c 15 f3 78 fc bf
       1.6026007417514354 -1.7795286983671095
000020 8f cb 62 29 fc c8 f6 bf fb 41 91 52 3d bd e5 3f
       -1.4240686051022953 0.6793505299229418
000030 b9 cb 13 b8 13 9b 82 3f c4 b5 bf 6c b6 a5 b3 3f
       0.009084848456472604 0.07674732356073038
000040 27 7b 61 32 22 d2 b4 bf 85 3d a8 5d 26 22 a6 3f
       -0.08133138399123806 0.043229292805445
000050 4c 6b d3 45 c9 dc 8e 3f 5f 86 f8 df 88 d8 ab bf
       0.015069553798118605 -0.05438640340822753
000060 e7 32 ae 12 85 fb d2 3f 41 85 54 43 a5 06 91 3f
       0.29660155128730853 0.016626913294321758
000070 37 d1 1e d8 69 e2 f5 3f ce f0 9e 65 1e 97 9b 3f
       1.367776722164377 0.02694365973705786
000080 c0 0e 85 37 54 e1 4d 3f b0 8d 63 2f fe e7 90 bf
       0.0009118710723119081 -0.016509982721698513
000090 b4 25 4a c4 c2 c8 ab 3f 83 25 f3 47 2b e7 a6 3f
       0.05426605840791457 0.04473243001263951
0000a0 46 45 bc 7c e4 5c aa 3f 74 11 38 98 ef 22 cc bf
       0.05148996374749486 -0.21981615955895573
0000b0 c0 cb 65 e5 8b d6 c7 3f b3 67 e3 04 47 2c e8 bf
       0.186234938631598 -0.7554049582934027
0000c0 77 28 8d c9 80 e7 c8 3f 78 33 05 b4 29 73 81 bf
       0.19456491319062127 -0.008520437055858684
0000d0 4e a9 70 fb 63 65 f3 3f 20 39 06 94 6d 2e 53 bf
       1.2122535535696275 -0.0011707372760586046
0000e0 d0 1d b7 85 af d4 60 bf 97 88 71 af 63 35 9d 3f
       -0.0020545414133470233 0.028523976882191517
0000f0 46 19 fd 24 23 1f ba bf de b2 4a cd 51 c0 99 bf
       -0.10203761723559976 -0.025147703318611707
000100 e3 c6 dd 85 ca e3 c3 bf 19 30 22 bf a6 51 a2 bf
       -0.1553891328472253 -0.035779200393420925
000110 04 0b a9 c0 1f 66 c0 bf 1e 20 11 cd 29 b6 e1 bf
       -0.12811657817118072 -0.553486729165346
000120 4c d3 ef 5f 86 96 c9 3f 4a 1c f6 9b bc 8d f8 be
       0.19990615543761192 -2.3416194151273496e-05
000130 c3 b0 51 b1 46 33 f3 3f 55 9c b4 ce 04 04 65 be
       1.2000185896422841 -3.9144788600066253e-08
000140 97 68 07 02 66 f1 6a 3e c5 21 01 b5 e6 d7 a0 3e
       5.018517890464254e-08 5.01971365815062e-07
000150 f7 e3 fe 89 ab 1b 9a 3e d7 cc da 13 7b 65 9f 3e
       3.89040801347976e-07 4.678429553581226e-07
000160 86 ef 31 b4 fe ff ef bf 11 ec 71 5f df 62 c6 3f
       -0.99999938196514 0.17489235077286527
000170 5d 87 fb fc 0d b7 35 3f de b8 c4 47 ac 80 a1 bf
       0.0003313454771910385 -0.034184821854397404
000180 c9 30 80 3f 4c 37 c0 3f b3 05 dd 3f 28 90 bb 3f
       0.12668755627271924 0.10766841468014014
000190 55 fc 91 04 eb 50 b4 3f
       0.07935971128061799

running_mean_std.running_var f8 [51]
000000 34 e1 50 55 39 c4 ae 3f 91 ab 86 61 0e e7 ca 3f
       0.06009081999258328 0.2101762748910372
000010 db 84 2b 82 eb 80 de 3f 5c 2c 5f 17 bb e0 d0 3f
       0.47661864959634465 0.2637164810409496
000020 b7 73 66 e6 be 64 cc 3f f5 c7 27 f6 35 fc fc 3f
       0.22182451486596985 1.8115748992390739
000030 de c4 ab ff b1 15 a2 3f 7c 5f cd d0 74 5c b5 3f
       0.03532177206023744 0.08344202134810347
000040 c1 36 0a f8 52 90 c2 3f 3b 77 d4 74 71 60 d2 3f
       0.14502942191432136 0.287136425105803
000050 4c 89 ad 4f 0d 84 bb 3f 11 56 7a fb f9 52 d4 3f
       0.10748370356808329 0.317564483245719
000060 c4 b6 c0 10 7e cc a9 3f 97 3b 1f 5a e4 60 94 3f
       0.05038827852727715 0.01990086364804319
000070 e9 c3 8f 71 53 b1 98 3f 56 3c 48 c9 88 36 95 3f
       0.024113944822548836 0.02071584442643045
000080 a1 c7 2f d5 16 be 8f 3f b0 88 7d 35 70 2f a1 3f
       0.015499285107555329 0.03356505063017445
000090 76 6f fe ec fe c0 c2 3f a0 d1 42 95 20 69 cb 3f
       0.146514764518425 0.2141457299054652
0000a0 67 93 2a 8a a1 ad cb 3f 9f 0a 39 13 44 15 c1 3f
       0.21623629804994524 0.13346148432363678
0000b0 38 a0 02 d6 fc d2 c5 3f ae a2 55 57 dd b8 a5 3f
       0.17050133180350868 0.04242603007407318
0000c0 18 17 2b 3a 04 0a 74 3f 3f 41 ad 05 b7 b4 77 3f
       0.0048923649907857344 0.005787577562685719
0000d0 d5 9b ff 0f 41 2c a5 3f 1e 28 2c e5 93 1e 58 3f
       0.041353257372797415 0.0014721340455161667
0000e0 7a 62 8e 81 e8 5f 60 3f 5c 10 ce c1 f9 7b 77 3f
       0.0019988576063492665 0.005733466733435302
0000f0 a8 e2 49 fe cf 24 aa 3f ba 77 98 0f d3 5b 92 3f
       0.051062106886950176 0.017928407503965828
000100 89 0c cf fa e5 05 a9 3f a3 0b 43 7b 02 b1 c5 3f
       0.04887312590246846 0.16946440714499741
000110 6a bc 56 a3 ba 66 cc 3f 8c 1b 0f f0 ec 37 d2 3f
       0.22188504195716813 0.284663423950797
000120 cc a6 72 b9 47 52 6b 3f 80 8f c3 0c bd 4f 6b 3f
       0.0033351326815890033 0.003333920705800908
000130 d8 e1 6b 14 a7 51 6b 3f c4 85 20 5b ca f9 d4 3e
       0.0033348334576397236 5.001007069822678e-06
000140 40 e7 ad bd cb f9 d4 3e a1 0a 8b ea 70 f9 d4 3e
       5.0010121083134585e-06 5.000681689795257e-06
000150 ea 4a c1 45 f4 f8 d4 3e ad 94 e6 3b 7b f8 d4 3e
       5.000228238643691e-06 4.999787903169393e-06
000160 1d 81 74 78 20 06 d7 3e 95 e4 83 fc 1a 3f c4 3f
       5.489333381875314e-06 0.1581758244499595
000170 17 40 37 37 90 de b3 3f 24 af 13 13 75 cd c6 3f
       0.07761479709665796 0.17814505988587215
000180 ad 1d ae bd 24 a2 dc 3f 8f 97 b7 b2 6c 97 e0 3f
       0.4473964550347443 0.5184844484872303
000190 1d 2f a5 f5 cf 04 e5 3f
       0.6568374440916817

running_mean_std.count f8 []
000000 00 00 20 00 20 45 ef 41
       4196990977.0

a2c_network.sigma f4 [6]
000000 1a a3 36 c0 ba 6d 4f c0 96 a0 48 c0 16 f0 d9 bf
       -2.853705 -3.2410722 -3.1348014 -1.7026393
000010 3d 25 90 bf 91 19 26 bf
       -1.1261364 -0.6488276

a2c_network.actor_mlp.0.weight f4 [256, 51]
000000 31 9c 1c bd 0f 20 c9 bd 9d 91 25 bd 08 97 0b 3e
       -0.038234893 -0.09820568 -0.04042207 0.13631833
000010 9a d5 1b 3e 56 96 29 be 6b d1 70 3e ca 01 0a be
       0.15218201 -0.16561255 0.23517387 -0.13477245
000020 d2 24 8c bd cb a2 b3 3d 5c 56 20 3d 9b c0 bb bc
       -0.068429604 0.08771285 0.03914486 -0.02291899
000030 4e 50 64 be f1 57 eb bd 5c 61 66 be b4 0f 4a 3c
       -0.22296259 -0.11491383 -0.22498077 0.0123328455
000040 d4 30 5d 3e 40 17 59 3e c3 3f 2f 3d f7 ab 33 be
       0.21600658 0.21200275 0.042785417 -0.17546068
000050 a1 b0 34 3d 1c d2 36 3e cb e4 a5 bc 5f a6 41 3e
       0.04411376 0.17853588 -0.020250699 0.18911122
000060 22 c3 e0 be 71 03 3d 3d b7 1b 01 bf 84 ed 07 be
       -0.43898875 0.04614586 -0.50432914 -0.13274199
000070 4e c6 fb 3d 89 12 7f be 75 9d 64 be f9 70 ca bd
       0.12293683 -0.24909414 -0.2232569 -0.09884829
000080 9a 8e 31 be 54 8c 59 3e 53 9f 1d 3d 65 ef 9c 3d
       -0.17339554 0.21244937 0.03848202 0.076628484
000090 91 9e 2f 3e ad 85 38 3e 6e 0a 4b 3e bb c4 ed 3d
       0.17150332 0.18019743 0.19828197 0.11609789
0000a0 cb dc 45 bd df 37 b5 3d a0 63 05 be 39 5c 9b bd
       -0.048306268 0.08848547 -0.13026285 -0.075859495
0000b0 66 78 39 be b4 fd 12 3c 47 f3 6d bd da 4f 5f bd
       -0.18112335 0.00897162 -0.058093335 -0.05451951
0000c0 1e 21 d5 bd 75 18 d3 bd 24 5a 97 3c 17 ef 3a bc
       -0.10406707 -0.10307399 0.0184756 -0.0114095425
0000d0 30 59 7d be 11 fe 50 be 16 b9 39 bd b4 87 ce 3d
       -0.24741054 -0.20409419 -0.045342527 0.10084477
0000e0 07 c0 5d 3d 21 78 81 bd f6 61 47 3e 73 69 64 be
       0.05413821 -0.06321741 0.19470963 -0.2230585
0000f0 cf 67 7c bd b9 72 f2 3d fc 4d a3 bb bc 73 80 be
       -0.061622437 0.11838288 -0.0049836617 -0.25088298
000100 90 a0 70 3d 77 47 89 3e 35 58 bb 3d fe 25 3e be
       0.058746874 0.26812336 0.091476835 -0.1856918
000110 72 f3 aa be a6 7f d2 3d f3 41 82 3c f3 6e d8 bc
       -0.3338886 0.10278253 0.015900588 -0.026420092
000120 cc 46 63 3e 89 a7 27 3e 9d b2 4b 3e b8 03 6c be
       0.22194976 0.16372503 0.19892354 -0.23048294
000130 95 d1 02 3e 2b ae 11 bf b4 71 27 3d f5 cb c9 bd
       0.12775262 -0.56906384 0.04087992 -0.09853355
000140 8a 8f a7 be d4 87 dc bd 51 ba aa 3d 82 6d 3c bf
       -0.327267 -0.10768095 0.08336318 -0.73604596
000150 2c d2 30 3e e9 3d b0 3e 4e 8e 41 3f d3 7a 03 3e
       0.17267674 0.34422234 0.75607765 0.12839822
000160 31 09 a9 bc 53 5f 00 3d 3a b1 c5 bd 3f 03 18 3c
       -0.020634266 0.03134091 -0.09652944 0.009278118
000170 03 16 35 3e bd 4f 60 bc 53 96 e8 3d dc ba 72 3d
       0.17684178 -0.013690886 0.11356797 0.059260234
000180 22 8b 07 3e 92 6b d9 3d 02 eb 61 be ce 9a b0 bd
       0.13236669 0.106162205 -0.22062305 -0.08623277
000190 ab 76 fc 3d d6 33 4b 3e 59 e0 33 3e cd 4f c2 bd
       0.123273216 0.19843993 0.1756605 -0.09487877
0001a0 92 36 a3 be 5a f5 1b 3e 52 2d c9 bc 69 64 1f 3d
       -0.3187757 0.15230313 -0.024557743 0.038914118
0001b0 5e 53 02 bd 13 a6 2f be 4d 57 e8 3d c2 01 4e bd
       -0.031817786 -0.17153196 0.11344776 -0.050294645
0001c0 f0 5c e7 3d b2 87 9b bd a4 7b ef 3d 1c 96 b1 bc
       0.11297023 -0.07594241 0.116935045 -0.021678023
0001d0 fa 6d 9f 3e d7 bc fe bd 56 ff 3e bd f2 85 18 3e
       0.31138593 -0.12438362 -0.046630226 0.14894846
0001e0 51 16 49 bd 9d fb f1 bd 35 0c d2 3d 31 5f 82 3e
       -0.04909355 -0.118155695 0.102562346 0.2546325
0001f0 82 75 f0 3d 91 93 92 3d 0f 4e eb 3e 19 11 c6 3e
       0.11741163 0.07157052 0.4595799 0.3868492
000200 0a ac df 3e 0b e1 91 3e b1 d8 89 be b9 c8 8d 3d
       0.43685943 0.28492007 -0.26923135 0.069230504
000210 c5 26 76 3e 9c 30 cd 3d 95 6b 88 3e 94 1d 8a 3c
       0.24038227 0.10019037 0.2664458 0.016859807
000220 8e 74 bb bc b3 d4 1d 3e 78 9d 37 bf 6b 6d 5f bd
       -0.022882726 0.1541317 -0.71724653 -0.05454771
000230 78 d5 ac be 83 d3 8a 3c f7 47 44 be 1b 3a 89 3d
       -0.33756614 0.01694656 -0.19168077 0.06700536
000240 00 2c 02 bc 8a 17 e1 bc 4d 70 37 be 0d 25 e9 bd
       -0.007945061 -0.027477045 -0.17913933 -0.1138402
000250 0f 86 90 be 1e 9c 37 3e 20 65 64 3e 5b c6 43 3d
       -0.2822728 0.17930648 0.22304201 0.04779659
000260 d7 3a 9c 3d 50 f3 be 3d 83 5a 0e bf 5b b4 29 bd
       0.0762841 0.09323752 -0.5560686 -0.041431766
000270 1b c3 74 bd a2 09 5c be 83 ae 8c 3e f2 a5 d6 3d
       -0.05975638 -0.2148805 0.27476892 0.1048087
000280 0e 84 1b be c9 f1 bc 3d 07 ff c2 bd ff f5 93 bc
       -0.15187094 0.09225804 -0.09521299 -0.018061636
000290 4e f1 9b bd 30 86 58 3e 85 82 14 3e 7c be d5 bd
       -0.076143846 0.21144938 0.14502914 -0.10436723
0002a0 44 08 0c 3d 80 38 95 3c 1c 29 f1 3d 6c e0 27 bd
       0.03418757 0.018215418 0.11775419 -0.04098551
0002b0 0b b5 77 3d 79 66 c1 bd f6 e4 55 be 32 23 15 bd
       0.06047539 -0.09443373 -0.20888123 -0.036410518
0002c0 c6 3d 85 3e 3c 2d c2 bb 74 04 09 be f4 a3 0d bf
       0.26023692 -0.0059258025 -0.13380605 -0.553283
0002d0 19 19 eb bd 5f 88 28 be f8 d5 11 be 80 14 63 be
       -0.114793964 -0.16458271 -0.14241779 -0.22175789
0002e0 7e 1e 46 bc e4 80 a9 be 2e b1 00 be 19 66 b7 be
       -0.012092231 -0.33106148 -0.12567589 -0.35820082
0002f0 39 26 a7 3d 5a 50 e3 3d cd 0b a0 3b cf 85 e9 3e
       0.08161587 0.1109931 0.0048842193 0.456099
000300 16 8f 16 3d 44 00 66 3d 34 7e cc 3d ec 5e 01 bd
       0.03675755 0.056152597 0.09985009 -0.031584665
000310 dc cd 22 3d c8 2f 2c bd cd d1 3b be e5 95 c8 bc
       0.039747104 -0.042037755 -0.18341751 -0.024485538
000320 4f c6 31 3d 50 1a 3b 3d 2a 99 ae 3d 36 03 ed bd
       0.043402012 0.04567939 0.085253075 -0.11572878
000330 3a 33 3c 3e 3a f6 77 3d b2 1a 70 be 32 f8 0e 3e
       0.18378916 0.060537554 -0.23447683 0.13961866
000340 2b 5c 21 3b d6 f8 9f bc 75 da 36 bd 11 9f c6 3d
       0.0024621587 -0.019527834 -0.04464193 0.09698308
000350 64 85 14 bd d0 81 63 3d 44 1e 2f 3d 99 8b aa 3d
       -0.036260024 0.05554372 0.042753473 0.083274074
000360 41 3d fc 3d 6c 2c 8b 3c aa 66 3e bc 68 27 4b be
       0.12316371 0.016988955 -0.011621157 -0.19839251
000370 a8 7a 30 be 88 7c 1f be e1 65 85 bd eb b1 8e bb
       -0.1723429 -0.15574849 -0.065135725 -0.0043547056
000380 a4 24 98 3c 44 4c 5b 3e 97 0e 8b 3d 98 d8 84 be
       0.01857216 0.21415812 0.06789892 -0.25946498
000390 01 a7 20 be 11 47 72 3d a2 17 72 bf a7 59 27 3e
       -0.15688707 0.059149805 -0.9456731 0.16342793
0003a0 cd 05 26 bd 76 60 8b bf 40 b6 5b 3d 08 15 ca bd
       -0.040532876 -1.0888813 0.053640604 -0.09867293
0003b0 13 c7 0d bf c6 6c 5f be 6b d6 29 3e c9 92 44 3f
       -0.5538189 -0.21818838 0.165857 0.76786476
0003c0 3a 40 a0 bd 6e 3b 1d be b0 a3 be 3d c9 ad eb 3d
       -0.0782475 -0.15354702 0.09308565 0.11507756
0003d0 60 b0 a8 bd f9 fd 8f bc 91 6b 85 3b 99 3c b2 3b
       -0.08236766 -0.017577158 0.004071661 0.0054393527
0003e0 1b 08 da bd 73 8a 8c bc 0f 37 d5 3d 30 3f 17 3e
       -0.10646077 -0.017155861 0.10410892 0.14770198
0003f0 2e 5b 84 3c 5c 21 d6 3c 78 64 80 3d 88 cc c0 3d
       0.01615676 0.026138954 0.06269163 0.09414011

a2c_network.actor_mlp.0.bias f4 [256]
000000 e0 30 11 bf 02 16 d5 be 0c 41 ff be f5 34 12 bf
       -0.567152 -0.41618353 -0.49854314 -0.57112056
000010 54 db ec 3c 05 72 ab 3e c4 cb d8 3d c2 57 05 bf
       0.028913178 0.33485427 0.1058574 -0.5208703
000020 b7 26 96 be 2f bc b2 be 18 89 f7 bc ac ae 0b 3e
       -0.29326412 -0.34909198 -0.030216739 0.13640851
000030 b3 2b af be 56 ec f5 3e 07 08 ec 3d 94 7c 08 3d
       -0.34213027 0.48031873 0.115249686 0.033321932
000040 76 87 de 3d 62 96 33 3d 89 97 84 be c5 e6 f3 be
       0.10865681 0.043844588 -0.25896862 -0.47637
000050 fe 7e ad bd 2f ec a7 3d a9 1d 0a be dd b9 3a 3e
       -0.084714875 0.08199345 -0.13487877 0.18234964
000060 8c 8b 32 3e 86 05 24 bf be 8c f1 3c 0f 8e 74 be
       0.17436045 -0.6407093 0.029486056 -0.23882316
000070 45 48 f1 be dd a3 1b 3e 8c 9d 30 be ff 6a 3f bf
       -0.4712545 0.15199228 -0.172476 -0.7477264
000080 7f ab c5 be c2 3a e9 be 5f a8 52 3e 51 e9 23 bf
       -0.38607404 -0.4555264 0.20572041 -0.6402789
000090 ae 30 48 bf 6e cf de bd 30 3b 05 be ea 9d 4e be
       -0.7819928 -0.10879408 -0.1301086 -0.20177427
0000a0 79 e2 95 be d0 3b 74 3d 60 bb 81 be ab d9 b9 be
       -0.29274347 0.059627354 -0.25338268 -0.3629888
0000b0 10 5d af be ab 6c 13 3f 3d a3 ce 3e 7a f1 48 3e
       -0.3425069 0.5758769 0.40358916 0.19623366
0000c0 55 b2 6f 3e a5 af 90 3c 43 76 5c 3e 5c 5e 4e 3f
       0.23407872 0.017661879 0.21529488 0.8061273
0000d0 5b e5 35 be e5 01 03 3e ff d4 bd be 06 26 83 be
       -0.17763273 0.12793691 -0.37076566 -0.25614947
0000e0 ca 51 06 bf 11 64 01 3f 9f 5d 71 be 72 14 ec bc
       -0.5246855 0.50543314 -0.2357087 -0.028818343
0000f0 e1 ef 14 bf ec 17 dc be 98 ff 8e bd 3f 4c cf 3d
       -0.58178526 -0.42987 -0.069823444 0.10121965
000100 c8 d9 2a bf c7 58 12 bf 9a a0 81 3d 73 82 ed bc
       -0.6673856 -0.57166713 0.063294604 -0.028992867
000110 dd 34 2d bd 7a 12 ae be b1 6b 9f 3d ad 64 b0 bc
       -0.042286742 -0.33998471 0.077842124 -0.021532381
000120 36 42 15 3d 3f d4 27 bf f4 24 87 3e e1 72 82 be
       0.036440097 -0.65558237 0.2639538 -0.2547827
000130 55 32 68 3c 5a 53 c8 bd 56 d8 66 be 96 56 9d 3e
       0.014172156 -0.09781523 -0.22543463 0.30730122
000140 3e 67 14 3e ed a0 e9 3e 46 2d 42 be 48 31 8f 3e
       0.14492509 0.4563059 -0.18962583 0.27967286
000150 e1 24 84 3e 89 f5 1d bf 1c 1e 0c bf 57 cb 12 3e
       0.25809386 -0.6170278 -0.54733443 0.1433538
000160 65 b1 93 3e a1 c3 7f 3d 50 a5 84 bd c2 c2 b0 3e
       0.2884628 0.062442426 -0.06476843 0.34523588
000170 24 51 07 3f 81 72 5e bc 3f 03 b6 be 41 71 34 bf
       0.52858186 -0.013577105 -0.35549352 -0.7048531
000180 66 85 0c bf 38 81 b0 be 77 c4 25 bf 29 24 0c be
       -0.5489105 -0.34473586 -0.64752907 -0.13685669
000190 5b 1f a7 bd 1c 80 eb bc ed 80 82 3e 24 3b 4e bf
       -0.081602775 -0.02874761 0.25488988 -0.8055899
0001a0 55 06 2d be e5 d5 f2 be be d5 7f be 5b 54 02 be
       -0.16896947 -0.47428814 -0.2498388 -0.12727492
0001b0 99 93 16 be 47 38 4f be 1c a2 62 be fa 84 0a 3d
       -0.14704742 -0.20236312 -0.22132152 0.033818223
0001c0 30 7a b5 be 1f 7c ec be 99 91 83 3d 3d e7 70 be
       -0.35444784 -0.46188447 0.06424255 -0.2352571
0001d0 b1 a5 f1 bd bb 14 ab be 2b 0e 1d 3e c2 34 b9 3e
       -0.11799181 -0.33414254 0.15337436 0.36173064
0001e0 41 93 83 be 3f 29 c8 3d 0e a9 f6 be 38 ef ab be
       -0.25698283 0.09773492 -0.48175853 -0.33580947
0001f0 d9 41 cd 3e 32 61 ed be 4c 5d 89 3d ee 6f 18 bf
       0.400893 -0.46363217 0.06707248 -0.5954579
000200 29 83 c7 bc b0 35 28 be 1d e8 9b 3e 9d db 89 bd
       -0.024354534 -0.1642673 0.30450526 -0.06731341
000210 7d 38 d7 be 9f 8e ea be 9a ee cf 3e 20 da 15 3e
       -0.42035285 -0.45811936 0.40611726 0.1463399
000220 7a 7e 41 3e b1 46 7c 3e 6f 66 4d be 7b 00 36 bf
       0.18895903 0.24636342 -0.20058607 -0.71094483
000230 d5 13 0c be 2a f1 27 3e df 47 55 3c 2e ec 6a be
       -0.1367944 0.1640059 0.013017624 -0.22941658
000240 b6 fa b3 be ed a0 f0 bc 13 d5 a9 3d ac 95 99 3d
       -0.35152215 -0.02937361 0.08292594 0.07499251
000250 4b a0 44 3e 40 af d5 3e f7 0d c0 bd 6a 7b cc 3d
       0.19201772 0.41735268 -0.093776636 0.09984477
000260 20 be 90 be 92 eb 4e be 31 1c 0e bf 43 c6 3c bb
       -0.28270054 -0.2020705 -0.55511767 -0.0028804697
000270 0d 18 bc 3d 22 40 22 3e c2 0d f9 be c5 2f 63 3e
       0.09184275 0.15844777 -0.4864331 0.22186191
000280 6a 05 a5 3e 7c d0 cf be 87 37 0c be 2a 45 58 be
       0.32230693 -0.40588748 -0.13693057 -0.21120134
000290 69 3d fc 3e 23 93 70 be 61 db b8 be 87 45 88 be
       0.49265602 -0.23493628 -0.36104873 -0.26615545
0002a0 a3 9b bd 3d 29 28 c1 bd d0 b7 04 bf d0 85 91 3d
       0.09258201 -0.09431488 -0.51842976 0.07105601
0002b0 6c 3b dc 3d 70 0c 4a bf bd 54 09 be b0 45 03 3d
       0.10753521 -0.7892523 -0.13411231 0.03204888
0002c0 43 1a 0b bf 49 81 1d bf a6 99 25 be 69 52 60 3e
       -0.5433695 -0.615254 -0.16171893 0.21906437
0002d0 92 bf 0b bf 69 f0 1d bf 5b 80 d5 be f1 73 af 3d
       -0.5458919 -0.6169496 -0.4169949 0.08567036
0002e0 9e 79 74 3d 59 08 de bd ec d7 ab bd 52 73 8b bd
       0.059686296 -0.10841436 -0.08390793 -0.06809105
0002f0 a2 28 75 3d 47 c3 c2 be 97 f7 27 be 96 e5 25 bf
       0.059853204 -0.3803961 -0.16403042 -0.64803445
000300 90 a2 51 bf 6a 41 d3 3d fb 1a 8b be 24 23 04 bf
       -0.81888676 0.10315211 -0.27169022 -0.5161612
000310 3d 71 0b 3e a2 bf 53 bf 01 5a a7 be 0d 46 1c bb
       0.13617416 -0.82714283 -0.32685855 -0.0023845464
000320 f6 99 3c 3e 6f 71 37 3e 57 eb cf be eb 20 b2 3d
       0.18418106 0.17914365 -0.40609238 0.08697685
000330 ee 1d e5 3e 46 e7 5c be 30 a0 0b 3e 51 99 00 be
       0.44749397 -0.21572599 0.13635325 -0.12558486
000340 6d 30 70 be 62 13 69 3d 34 4b 1a be 06 5c 04 3e
       -0.23455973 0.05690325 -0.1506775 0.12925729
000350 e5 4c 20 3d dd 5c ca 3d 13 89 2d be bb 59 25 3e
       0.039135832 0.098809935 -0.16946821 0.1614751
000360 7b a1 9b 3d 66 b9 84 3d 7a 59 73 bc c8 6a 01 bf
       0.07599159 0.064806744 -0.014852876 -0.5055356
000370 d1 5d 41 bc 0b 6b e9 3e 7e a1 15 3e 51 29 c2 be
       -0.011802153 0.4558948 0.14612386 -0.37922147
000380 df 97 01 bf 84 9c 01 bf ff e9 7e be e9 ab 4b be
       -0.5062236 -0.5062945 -0.2489395 -0.19889797
000390 c8 c3 1c 3b 1c 6c b0 be fb 45 ac 3e e0 0f a1 bd
       0.0023920406 -0.3445748 0.3364714 -0.07864356
0003a0 93 e9 fa be 88 b0 4c bf 7e 05 b8 3d 99 44 7e be
       -0.49006328 -0.79956865 0.089854226 -0.24830855
0003b0 ae 25 06 3f 46 db 3f be e6 ef 69 3e d5 c7 05 be
       0.52401245 -0.1873599 0.2284542 -0.13064511
0003c0 38 26 9f be e0 1a 43 3e 79 62 80 3e 6d 6b cb be
       -0.31083846 0.19053221 0.2507513 -0.39730397
0003d0 a0 60 c9 bc ea 88 33 bd b6 8d 12 3e 61 f2 05 be
       -0.024582207 -0.043831743 0.14311871 -0.13080741
0003e0 08 ca da bd e4 66 35 bf b9 a5 e6 be e7 3e c5 be
       -0.10683066 -0.70860124 -0.4504831 -0.38524553
0003f0 9a e5 9f be 27 52 06 bf fa 50 a4 be 7a 8c e8 bb
       -0.3122986 -0.52469105 -0.3209303 -0.0070968242

a2c_network.actor_mlp.2.weight f4 [128, 256]
000000 a7 b9 e8 3b 03 2b c3 bd 0f 8e 74 be b4 8b 0e be
       0.0071022096 -0.09529688 -0.23882316 -0.1392048
000010 48 36 29 be 68 89 5c 3e d6 72 00 3e 98 c9 1c be
       -0.16524613 0.21536791 0.12543806 -0.15311277
000020 d9 05 16 bf 2b f8 4c 3e 32 bc 57 3e 21 8a e2 3d
       -0.5860267 0.20016544 0.21067885 0.11061502
000030 23 26 71 3d 16 d2 31 3e 03 8f dd bd dd 86 2b be
       0.05887426 0.17365298 -0.10818293 -0.16750665
000040 9d bb c1 3d 06 d9 e4 3d 56 8e 16 be c0 2a 11 be
       0.094596125 0.111742064 -0.14702734 -0.14176464
000050 71 d0 9c be d5 9c 0b 3e 0c d1 9c 3d b2 a7 3a be
       -0.30627778 0.13634045 0.0765706 -0.18228033
000060 84 c9 ae 3d 7f 08 74 be 30 19 a2 3d 58 18 35 3d
       0.0853453 -0.23831366 0.079149604 0.04421267
000070 d4 16 c1 bd 01 1d e4 bd a3 9b 08 be c7 15 3e bd
       -0.09428182 -0.111383446 -0.1334062 -0.046407487
000080 3e 2f d5 3e 69 c1 bc bd ac 53 47 3d 06 78 5d 3e
       0.41637605 -0.092165776 0.04866378 0.21627817
000090 7e e3 58 bd de 4d 06 bc 43 40 97 be 18 7c c1 bd
       -0.05295133 -0.008197276 -0.29541215 -0.09447497
0000a0 8b 24 96 3d 7e 51 97 bd 89 d4 96 bd 5f 75 4a 3d
       0.07331189 -0.0738859 -0.073647566 0.04942834
0000b0 d2 58 ba 3c 24 2c c5 3b cd fe 81 bd 4d 97 22 be
       0.022747431 0.006017225 -0.063474275 -0.15878029
0000c0 28 ee a2 bd f7 8d 2d 3a da 7e 07 3e 57 91 6c bd
       -0.07955581 0.00066205807 0.13231984 -0.057755794
0000d0 f1 c7 12 be 63 e3 76 3c 83 80 4e bd fb 55 64 bc
       -0.14334084 0.015068862 -0.050415527 -0.013936515
0000e0 d4 1f c6 3d 70 89 91 be 69 84 22 be fe 09 81 3c
       0.096740395 -0.2842517 -0.15870823 0.015751835
0000f0 22 62 b4 3c 37 41 32 3e 0a c5 97 3d 8b 72 9d 3d
       0.02201945 0.1740769 0.07410629 0.07687863
000100 d9 84 74 3e 97 a7 ef 3d 9a 52 c6 bd 82 83 44 3e
       0.23878802 0.11701887 -0.09683724 0.19190791
000110 2d ca 34 be 4d 45 8b be 9e 6c 3a be 5d 1a da 3c
       -0.17655249 -0.2720131 -0.18205497 0.0266239
000120 c4 34 4d be 00 89 a3 3e 24 90 3d bd 3c b8 83 bb
       -0.2003966 0.3194046 -0.04628004 -0.004019765
000130 3e de 27 3d e5 71 ff bc dc cf d0 3c 47 7e 5a 3d
       0.04098343 -0.031182239 0.02548974 0.053343084
000140 cc 91 af bd 87 99 89 bd 3f 8b 7a be 84 5e 27 bd
       -0.085727304 -0.06718736 -0.2446718 -0.04086162
000150 7e 01 b0 be 9f 8f 6a 3e a5 68 b2 3c 25 7f fb bd
       -0.34376138 0.2290635 0.021778414 -0.1228011
000160 d9 af f0 bd cc f8 8b be bb 05 df be 9f 69 a7 3d
       -0.1175229 -0.27338254 -0.4355906 0.081744425
000170 ca b9 a9 bc f2 7e 06 3b 08 29 66 3d ec 91 9c 3e
       -0.020718474 0.0020522443 0.056191474 0.3058008
000180 d3 bb 8f 3d ac f5 c4 3d 90 83 45 3d eb e5 10 3e
       0.070182465 0.09617171 0.04822117 0.14150207
000190 76 3e 0d 3e b4 31 06 3d 4f 7b 22 be d8 4e 6e 3d
       0.13793358 0.032762244 -0.15867351 0.05818066
0001a0 f1 84 7e 3d 13 bb 64 be 1e ed 98 bc 2d 2c 59 3d
       0.0621385 -0.22336988 -0.018667754 0.053020645
0001b0 88 54 f4 bd a3 14 74 3e 2e 3f 83 3e 40 26 53 be
       -0.119301856 0.23835997 0.2563414 -0.2062006
0001c0 4c d3 ad bb 5c 2d 38 3a 90 fe 33 3d da 5e 41 bd
       -0.0053047296 0.0007025802 0.04394394 -0.047209598
0001d0 60 d2 b0 bd 96 6b 8a bc 65 7c 6f 3e e5 77 83 bd
       -0.08633876 -0.016897004 0.23387296 -0.064193524
0001e0 37 54 69 be eb 7c f8 3c 9f dc 5e be 75 33 56 3e
       -0.22786032 0.030333003 -0.21763848 0.20918067
0001f0 b8 a4 c9 bb 6b c4 47 bd f9 d4 8e 3e d9 09 33 3b
       -0.006153669 -0.048771303 0.2789686 0.0027319102
000200 f9 28 9f be 7b 90 36 be 22 6c b3 bd c7 0d 9c bd
       -0.31085947 -0.17828552 -0.08760859 -0.07619815
000210 2d 5c c9 3d e9 7e 40 be 1f ed b9 39 a0 10 de bc
       0.09832034 -0.18798412 0.0003546262 -0.027107537
000220 bf 40 20 be c4 32 d9 bd 49 2d a1 3d 8a b4 94 3e
       -0.15649699 -0.10605386 0.078699656 0.2904399
000230 53 c1 8b 3d aa fd 31 bc 5b 61 8c be 07 5d 80 3d
       0.06823983 -0.010863701 -0.27418026 0.062677436
000240 f3 85 37 3e 0b 39 1a bb 54 36 1c be 76 9a 52 3e
       0.17922191 -0.0023532535 -0.152551 0.20566735
000250 5f cb 32 3e 97 5e 05 be 99 2a 4c be 08 16 12 3b
       0.17460392 -0.13024364 -0.19938125 0.0022290964
000260 c4 4b 64 bc 09 2a d4 bc a3 53 89 3e 29 20 4b 3e
       -0.01393408 -0.02589895 0.26821622 0.19836487
000270 3b 0d ce 3d 3e 59 39 3e 61 f0 d2 3b 78 6d 23 3e
       0.10061117 0.1810045 0.006437347 0.15959728
000280 5b 4b 00 3d 3a 7c 46 be cf 43 f9 3d a6 b9 b5 3d
       0.031321865 -0.19383326 0.121711366 0.088733
000290 84 65 48 be 96 cc fc 3d 20 a3 68 bd ba 0c 83 be
       -0.19569975 0.12343709 -0.056796193 -0.25595647
0002a0 e1 3c b2 3c 0d 19 5c be e3 d4 f9 3c 2f 86 a7 be
       0.021757545 -0.21493931 0.03049702 -0.3271956
0002b0 86 c6 d7 3d 73 36 24 be 80 4f ec bd d2 21 95 be
       0.10535912 -0.16036396 -0.11538601 -0.29127365
0002c0 ce 8e b2 3e 4c 35 06 be 8a 74 8a be 09 33 75 bd
       0.34874576 -0.13106269 -0.27042037 -0.059863124
0002d0 1c b8 ac be 5d 2b 65 bd b2 af 94 3d 8d e9 e9 3d
       -0.33734214 -0.055949558 0.07260074 0.114214994
0002e0 ff ba d5 be 1b 97 3c be 74 2b 72 be 2d 06 a7 bc
       -0.4174423 -0.18417017 -0.23649389 -0.020388687
0002f0 be e2 c6 3d 2e 3e 02 3e fd 25 a1 be d9 d7 9b be
       0.097112164 0.12719032 -0.31474295 -0.30438116
000300 09 22 d3 bd a9 00 05 3d 67 e3 5f bd da 02 47 be
       -0.10309226 0.032471333 -0.054660227 -0.19434682
000310 18 bb e4 3c 6e ff dd 3d 61 fe cf 3d 46 6c 69 bd
       0.027921245 0.10839735 0.10155941 -0.056988023
000320 69 2e 22 3e 5a c7 2b be 37 c7 81 3e f7 6a 3b bd
       0.15838017 -0.16775265 0.253473 -0.045756306
000330 fd bc 62 be 33 ed f3 bd b2 08 82 be 81 bb 6f 3d
       -0.22142406 -0.119104765 -0.2539726 0.058528427
000340 26 71 06 bd ef 44 c0 bd 37 b0 ab 3e 76 9d 47 3d
       -0.03282275 -0.09388148 0.3353288 0.04873415
000350 4c 9a 79 be f2 d8 6e 3e c9 5b b8 be 48 9a 5a be
       -0.24375266 0.23324946 -0.36007527 -0.21347916
000360 05 6c c4 bd 0e 40 a2 3d ef 4a 74 3e 67 4a b6 3c
       -0.095909156 0.07922374 0.2385671 0.022252275
000370 5f 8f 01 3d 07 23 12 3d 86 8b 61 3d 8f 35 cf 3c
       0.03163087 0.035677936 0.0550647 0.025294093
000380 60 2b 03 3e d0 8a 0f 3e 85 3b a7 3d 9e a9 4a bd
       0.12809515 0.14017797 0.08165649 -0.049478166
000390 1f 47 f2 bd 03 27 2f be 5e e2 06 3e fe 52 c2 bd
       -0.118299715 -0.17104726 0.1317229 -0.09488486
0003a0 9a 53 c7 3d 26 ec 6e be 28 74 d0 bd 96 8b e7 bd
       0.097327426 -0.23332271 -0.10178405 -0.11305921
0003b0 c0 c8 a8 3c a3 51 43 3e 7a 6d 8f be 82 99 4d be
       0.020603538 0.1907411 -0.2801321 -0.2007809
0003c0 03 4d 97 3e a3 bf 20 bd 32 52 9c bd 6b 7c b0 3e
       0.29550943 -0.03924526 -0.07632865 0.34469923
0003d0 f1 6d 01 3e d6 04 8e be 08 e0 fa bd 49 48 45 bd
       0.12639596 -0.27738065 -0.12249762 -0.04816464
0003e0 30 5e 12 bb fa 31 93 3e 5d b8 f2 bd 6d 9a e0 bd
       -0.0022333972 0.28749067 -0.11851571 -0.109669544
0003f0 77 9f 10 be 02 ec 20 3e 16 d5 f1 3c 83 73 fb bc
       -0.14123331 0.1571503 0.029520553 -0.030694729

a2c_network.actor_mlp.2.bias f4 [128]
000000 aa 7c d1 bd 77 75 21 be 13 8f 9c 3b 6a 89 cb bd
       -0.10228856 -0.15767466 0.004777798 -0.09938319
000010 66 6a e1 bd 82 8d 5f be 8e c9 3e be 6a dc 84 be
       -0.11006622 -0.21831325 -0.18631575 -0.25949413
000020 a0 c9 81 be f3 7b 11 bf b8 76 c9 be e0 a9 3d be
       -0.2534914 -0.56829756 -0.39348388 -0.18521833
000030 27 de ec be b2 5d c7 be bf c7 60 be 09 ae c2 3a
       -0.4626324 -0.3893867 -0.21951197 0.0014852892
000040 88 2c e4 be af 12 4f be e5 d5 03 bd 02 3d 10 bc
       -0.44565225 -0.20221971 -0.032186408 -0.008803608
000050 e5 1f dd bc f1 a8 f1 bd 1d 1d 40 bd 32 04 06 3d
       -0.026992748 -0.11799801 -0.046902765 0.032718845
000060 a2 0c e8 bd 3d 09 a0 be a6 55 43 be cd 0e 0e 3d
       -0.113305345 -0.31257048 -0.19075641 0.034682084
000070 33 14 ab be 26 2c f6 bc 19 de de be e6 6d 5e be
       -0.33413848 -0.030050348 -0.43528822 -0.2172161
000080 4f f3 04 3d 14 1d 6c be 7d 1c 93 bd ec b2 83 bc
       0.0324586 -0.23057967 -0.07183168 -0.016076528
000090 84 f7 20 bd df 7e 77 be c9 90 95 be a5 5a 33 bd
       -0.03929855 -0.24169491 -0.29212025 -0.043787617
0000a0 9a 5c aa bd 66 cf e4 3d a8 da 89 be 64 96 31 b9
       -0.083184436 0.111723706 -0.26924634 -0.0001693606
0000b0 9a 98 96 be 55 ee 1b be 3b 7c 63 bd 3e 54 95 be
       -0.294133 -0.15227635 -0.055538397 -0.29165834
0000c0 4b 83 1a be e1 93 bc be 04 e9 21 bf 2d 9f 82 be
       -0.15089147 -0.36831573 -0.6324618 -0.25512066
0000d0 d1 73 8a be 57 8f e4 be be da 8c 3e 57 52 af be
       -0.27041486 -0.4464061 0.27510637 -0.34242508
0000e0 a2 80 86 bd 0b b9 30 be 2b e8 a2 3d 95 2f 6a bb
       -0.065675035 -0.17258088 0.07954439 -0.0035733928
0000f0 22 91 87 be 85 d2 8b be 90 f2 46 bc 7a df 99 be
       -0.26477915 -0.2730905 -0.012142792 -0.30053312
000100 fc 55 2f be a4 42 53 be fe 6d 04 bd 4a b6 c9 3d
       -0.17122644 -0.2063089 -0.03233146 0.09849222
000110 83 7a 20 be 56 25 dc 3d 21 1e 9e bd 6e c4 74 be
       -0.15671735 0.10749309 -0.077205904 -0.23903057
000120 67 f6 ce 3c 81 95 69 3c c4 d5 1e be d8 d1 15 bf
       0.025263978 0.014256836 -0.15511233 -0.5852332
000130 75 a4 9b bd 20 05 0b bf a8 f8 83 be c5 19 7e be
       -0.07599727 -0.54304695 -0.25775647 -0.24814518
000140 8e 16 59 be 75 cd 3f 3d be b0 a5 bd d1 22 e1 bd
       -0.2120001 0.0468268 -0.080903515 -0.10992969
000150 39 33 2f be ce 54 b6 be 55 0c 54 3e d6 5e a1 be
       -0.17109384 -0.35611576 0.2070783 -0.31517667
000160 62 dc 26 bd e7 3e 0e be 26 47 5c be 5b 0b 91 be
       -0.040737517 -0.13891183 -0.21511516 -0.28328976
000170 6d 04 9e be e4 5d a6 be de fe 5c bd 0a d6 23 bd
       -0.30862752 -0.32493508 -0.053953998 -0.039999045
000180 79 e4 80 be e1 59 57 3b 37 b8 9e bd da 51 86 be
       -0.2517431 0.0032859968 -0.0774998 -0.26234323
000190 9a ce 42 be b4 10 03 3c 50 c6 3a 3e 97 40 07 be
       -0.19024125 0.007999588 0.18239713 -0.13208233
0001a0 76 20 ca be af fe 0f be 5c bc 5c bc 56 5b f7 be
       -0.3947789 -0.14061998 -0.013472643 -0.4831187
0001b0 87 7f a7 be 91 8e ec be 1a 82 1c be e3 0e 9f be
       -0.32714483 -0.4620252 -0.15284005 -0.31066045
0001c0 e9 0d b0 be 07 71 9c be 53 91 bb bc 00 26 d8 be
       -0.34385613 -0.30554983 -0.022896444 -0.42216492
0001d0 87 2b 6e be 7b a6 ca be b4 5c 5a bf 31 00 8f 3e
       -0.23258792 -0.3958014 -0.85297704 0.27929834
0001e0 6d 16 af 3c 26 5e d7 3b 06 13 ed bd 37 9c 5e be
       0.021372998 0.0065725027 -0.11575894 -0.21739279
0001f0 e4 46 bc bd 27 40 a9 be 0d c7 c7 be bf d3 05 3e
       -0.09193209 -0.33056757 -0.3901905 0.13069056

a2c_network.actor_mlp.4.weight f4 [64, 128]
000000 12 5b 79 3e 70 b1 00 3e ba 7f 81 3d 9a 61 83 3e
       0.24351147 0.12567687 0.0632319 0.25660402
000010 42 ee 6a 3d 83 6c 8f be 01 e7 e7 3d bd f7 64 3e
       0.057356127 -0.28012475 0.113233574 0.2236013
000020 cf a4 fd 3c d6 a7 b3 be 10 ab aa be c5 c4 e5 3e
       0.030962376 -0.35088986 -0.33333635 0.44876686
000030 94 30 b9 3e ee 15 e2 bc 6a 6f 94 bd dc 5b 77 bd
       0.36169875 -0.027598348 -0.07247813 -0.06039034
000040 d6 65 92 bd 9c ea 76 be 19 8e c7 be ee 75 ab 3e
       -0.0714833 -0.24112934 -0.389756 0.3348841
000050 82 14 eb 3d 78 45 6e 3a b7 9f 5b 3e 43 dd 00 be
       0.11478521 0.0009089331 0.21447645 -0.12584405
000060 bc 9d 96 bd 08 c4 83 be 42 73 96 3e 9c 52 36 bd
       -0.07354304 -0.25735497 0.2938481 -0.044512376
000070 d7 f2 4d be 9a cd bc bb ed ed f3 bd f8 5c 10 be
       -0.20112167 -0.0057618143 -0.11910615 -0.14097965
000080 5a 9f 69 be 78 78 6a be cf 27 3a 3e 57 4f f1 3d
       -0.22814694 -0.22897518 0.18179248 0.11782711
000090 f0 a7 03 3d 65 0c bc 3d e0 91 96 3e 3c 4e 0a 3e
       0.03214258 0.091820516 0.2940817 0.13506407
0000a0 1c cc da bd 30 0c ec 3c 81 6f 73 bc ce e1 a6 bd
       -0.10683462 0.028814405 -0.014858128 -0.081485376
0000b0 60 1e 19 be 04 60 be 3d d1 6e ca bd 18 7d 7d 3e
       -0.14952993 0.09295657 -0.09884418 0.2475475
0000c0 9b f4 8e 3b 30 92 3c bd 39 d1 a4 bc 11 a2 aa 3d
       0.0043626553 -0.046037853 -0.020119296 0.08331693
0000d0 6d 8b 5f bd 39 2b ae 3d 04 47 04 be 3f 49 ee 3d
       -0.054576326 0.08504338 -0.12917715 0.11635064
0000e0 ef 15 0f be 97 6c 08 3e 5e d4 f2 bc da 15 61 be
       -0.13973211 0.13322674 -0.02964228 -0.21980992
0000f0 03 2f c0 bc e5 04 d2 bd 52 e4 92 3c 12 b5 9a bc
       -0.023459917 -0.1025484 0.017931137 -0.01888517
000100 95 d2 97 be ef 41 4d 3e a6 26 9c be bd 16 2e be
       -0.2965285 0.20044683 -0.30498236 -0.17000861
000110 c3 3e e2 3d 8d d8 8a 3d f2 37 57 be 26 13 07 3d
       0.11047127 0.06779585 -0.21017435 0.032977246
000120 24 11 8a be 35 ea 53 bc b7 01 32 be 5b e3 10 3e
       -0.26966202 -0.012934257 -0.17383467 0.14149229
000130 ba 6b 97 3c 84 be a9 3d c8 3a d6 bd 07 9c 94 3e
       0.018483985 0.08288291 -0.104604304 0.2902529
000140 ac 92 7f bd 0a 6d 8b 3c e4 f4 a6 3e 40 04 70 be
       -0.062395737 0.017019767 0.32608712 -0.23439121
000150 05 b8 ae bd f8 d5 92 3e ad 98 4b bd 4d 56 74 3e
       -0.08531193 0.2867887 -0.04970615 0.23861046
000160 86 51 ac 3b fd e5 fb bd 54 6e 0b 3e b8 d7 ba 3e
       0.005258742 -0.12299726 0.13616306 0.36492705
000170 b0 fb c0 3d c4 ec 99 bc cd 4a 25 3e 58 90 86 be
       0.094230056 -0.018789656 0.16141815 -0.26282
000180 49 78 96 3d b5 66 6c 3d f5 b8 4e bd b5 dc 6c bd
       0.07347161 0.057715137 -0.050469358 -0.05782767
000190 8b 29 a5 3d 5f d2 86 be 32 b9 0c bd bd 7f 55 3e
       0.08064564 -0.26332375 -0.034356304 0.2084951
0001a0 73 b1 9c b9 45 b9 15 3d 22 5c c8 bd 04 3a 01 bd
       -0.0002988685 0.03655364 -0.09783198 -0.03154947
0001b0 d6 7f 67 3e 3c fa 95 bd 7b 0a f2 bd 9d 96 38 be
       0.2260736 -0.07323119 -0.11818405 -0.18026204
0001c0 c1 a5 22 be 23 dc 71 3b 54 79 4d 3c 46 24 93 3e
       -0.15883543 0.0036904893 0.012541134 0.28738612
0001d0 ee f9 70 be b8 23 07 3e ad a4 4a be a3 ad f5 3c
       -0.2353284 0.1319722 -0.19789381 0.029990023
0001e0 53 93 0e 3e c5 3c 99 3d 32 87 57 3d eb 51 9d be
       0.13923387 0.07482294 0.052619167 -0.3072656
0001f0 c2 6f be be 96 be 80 3e 3d 75 72 be 5d 57 04 be
       -0.3719464 0.25145406 -0.23677535 -0.12923951
000200 ad 7c c6 be b6 c5 bd be 43 57 e0 3b 6c 25 37 3e
       -0.38766995 -0.37064904 0.00684634 0.17885369
000210 d1 55 27 bf b1 36 f7 bd b0 ed 0f be d0 35 c0 bc
       -0.6536532 -0.120709784 -0.14055514 -0.02346316
000220 f6 7b 58 bd cf 44 72 be b1 93 9a bc 00 1b ff bd
       -0.052852593 -0.23659061 -0.018869253 -0.12456322
000230 ce fc 06 3e a4 92 a2 3e a6 4c dc be 10 e9 ab 3d
       0.13182375 0.31752503 -0.43027228 0.083940625
000240 75 47 90 3e a9 b9 96 be 6a 23 1e be 35 24 91 bd
       0.28179517 -0.29438522 -0.15443197 -0.07086984
000250 c7 21 07 bf 56 39 35 bd 84 69 3e 3e ec 05 7f be
       -0.52785915 -0.044244133 0.18594939 -0.24904603
000260 1d 16 9f be 2a cc 07 be 62 90 8d 3e 92 c1 31 3e
       -0.3107156 -0.13261476 0.27649218 0.17358997
000270 ac 88 80 3e 7f 4f e5 be ee 4f 0e 3e c3 13 a7 be
       0.25104272 -0.44787213 0.13897678 -0.32632264
000280 e5 60 c5 bd 81 30 8c bd a5 64 e5 3c c7 7a 03 3e
       -0.09637622 -0.06845189 0.028002093 0.12839805
000290 9b b3 7a be 55 bc 17 bf b3 e2 b9 3e 6d 77 c2 be
       -0.24482577 -0.59271747 0.3630577 -0.3798174
0002a0 7e e3 c4 bc 8d 23 02 bf 52 41 5d 3e d6 58 5e be
       -0.024034258 -0.50835496 0.21606949 -0.21713576
0002b0 bf c3 00 3e 01 f2 64 3e cb c3 13 bc 20 09 16 3e
       0.12574671 0.22357942 -0.009018849 0.14651918
0002c0 35 2f 1d 3d a0 84 ef 3e 11 e6 fe 3d 06 59 7e be
       0.0383751 0.46780872 0.124462254 -0.24838647
0002d0 07 b0 02 be ac ff 21 3d 56 91 28 be 93 36 0a be
       -0.12762462 0.03955047 -0.16461691 -0.13497381
0002e0 78 16 2f bc 3e b6 91 3c bc fa 2a 3e 18 b8 fd bd
       -0.010686509 0.017787095 0.1669721 -0.12388629
0002f0 49 29 84 be f0 22 16 3d b8 7f 2e be 1a a4 96 be
       -0.25812748 0.036654413 -0.17040908 -0.29422075
000300 3d 30 d2 bd e6 e3 3b be ae 68 8d 3c 20 af 03 be
       -0.10263107 -0.18348655 0.01726183 -0.12859774
000310 86 68 1d be a4 a0 22 3d 07 6c 95 be 3b 83 95 be
       -0.15371904 0.03970398 -0.2918398 -0.29201683
000320 b5 47 61 be 1d 8c 1e bb 9b 14 08 bf 7c 3d a8 be
       -0.2200001 -0.00241924 -0.5315644 -0.3285941
000330 e5 60 a7 3c 63 f7 05 bf 07 75 82 bc 65 14 ec 3b
       0.020431945 -0.5233061 -0.015924944 0.0072045797
000340 1d 13 0f 3e c7 1d d6 be 09 8f 20 3d 82 42 38 be
       0.13972135 -0.41819593 0.03919891 -0.1799412
000350 92 f4 97 3e 7b e3 4c 3c c6 8a b5 bd 76 d6 ec bd
       0.2967878 0.012505407 -0.088643596 -0.11564343
000360 91 35 9c bd dd eb a6 bd bf 97 5a be e0 25 83 3d
       -0.076274045 -0.08150456 -0.21346949 0.064037085
000370 1b 41 11 be 69 36 60 3e b6 43 54 be 45 e6 3d be
       -0.14184992 0.21895756 -0.20728955 -0.18544872
000380 44 8a 77 bd 59 94 0e 3e 80 21 da be f1 22 2e 3d
       -0.060434595 0.13923778 -0.42603683 0.04251379
000390 5c 00 37 3d a1 29 c1 be e4 d5 1a be 8f 19 b0 3d
       0.044678077 -0.37727073 -0.15120655 0.08598625
0003a0 92 44 1e 3d 3c 5d a5 3e 89 90 bf be e8 6e 3f be
       0.038639612 0.32297695 -0.3741496 -0.18694651
0003b0 6f 09 6b be e6 3f 4a 3e 04 79 36 be af c3 f8 be
       -0.22952817 0.19750938 -0.17819601 -0.48586795
0003c0 8d e0 c6 bd 37 a4 3d be 11 87 b1 be 3e 62 0d 3f
       -0.097107984 -0.18519674 -0.3467336 0.5522803
0003d0 08 18 5c 3e de e0 2d be 2c 76 5e 3d da 5b 71 be
       0.21493542 -0.16980311 0.054311916 -0.23570195
0003e0 d7 ad d0 bd 97 2e 67 3d a2 02 4a 3d 09 fe 0b 3e
       -0.10189407 0.056440916 0.049318917 0.13671125
0003f0 1d 8b 21 be fb 83 81 3e 46 57 24 3e 57 d8 03 3e
       -0.15775724 0.25296006 0.16048917 0.12875496

a2c_network.actor_mlp.4.bias f4 [64]
000000 d2 39 de bd 1f fd 80 be 98 9c bb be 8c bc a9 be
       -0.10850872 -0.25193116 -0.3664291 -0.33151662
000010 c0 22 b0 3d 8b 9f 12 be 3a 41 b1 be d8 e4 09 3d
       0.08600378 -0.14318673 -0.34620076 0.033665508
000020 e6 72 e4 3d 8b a2 6d be 10 49 72 bd 2e ef a8 bd
       0.11154728 -0.23206536 -0.05915171 -0.08248745
000030 28 08 5f bd 33 ac 45 be 79 f8 85 be c7 eb 0a be
       -0.054451138 -0.1930397 -0.26166132 -0.13566504
000040 8c 01 3b 3e e1 e0 20 be c6 0f 8f be 50 f9 28 be
       0.18262309 -0.15710784 -0.27941722 -0.16501355
000050 af 3d c2 bd af 8a aa bd 10 78 b0 be 3a 3d 18 be
       -0.094844215 -0.08327233 -0.344666 -0.14867106
000060 42 77 be bd 31 22 fa bd c7 38 27 be ee 0d a2 bd
       -0.093000904 -0.12213553 -0.16330253 -0.07912813
000070 da 53 e1 bc 8d 01 b0 bd 19 2b 9a be e7 7b 54 be
       -0.027505804 -0.08594046 -0.30111006 -0.2075039
000080 94 8c 8d be 74 6c 95 be 30 57 44 3e 85 30 b5 bd
       -0.27646315 -0.29184306 0.19173884 -0.08847145
000090 9a d3 20 be 19 b2 0b be 2a c6 16 bd a4 a4 dd 3d
       -0.1570572 -0.13642158 -0.036810078 0.10822418
0000a0 bc 87 82 be 1e 16 93 be 66 81 28 bd 23 6b 2d be
       -0.25494182 -0.28727812 -0.04113903 -0.169354
0000b0 58 ca 10 3e ce 0d 40 bd 8f 79 54 be ca 5f 47 be
       0.14139688 -0.046888165 -0.20749496 -0.19470134
0000c0 6b 53 1f bd 32 f0 f7 bb ad 48 de 3c c7 f1 b3 be
       -0.038897913 -0.0075664753 0.027134264 -0.351454
0000d0 1b 70 44 3d c0 86 8e 3b 66 f9 84 3c 84 34 03 3c
       0.047958475 0.0043495595 0.016232204 0.008008126
0000e0 43 04 ca be 39 f2 50 be 91 c9 94 be 37 41 a9 be
       -0.39456376 -0.204049 -0.29060033 -0.33057567
0000f0 71 a0 5b be 0e 8f c8 bd f1 55 03 be da 42 86 be
       -0.21447922 -0.097929105 -0.12825753 -0.2622288

a2c_network.value.weight f4 [1, 64]
000000 97 08 89 ba 22 d3 14 3a 7a d1 f7 b9 a7 a3 65 39
       -0.001045483 0.0005677213 -0.00047267583 0.00021900107
000010 f3 9c 85 ba 17 87 63 ba 8f 30 c8 ba 28 1f 13 3b
       -0.0010193869 -0.0008679493 -0.0015273261 0.002244899
000020 37 72 63 3b 41 27 4b b9 c4 2b 9f 3a cf cd 4d 3b
       0.0034705529 -0.00019374212 0.001214378 0.003140319
000030 4e 36 ef b9 dc 25 c5 3a 37 6e f1 3a 9e ca c9 ba
       -0.00045626092 0.001504119 0.0018419687 -0.0015395468
000040 42 dd 75 3b 20 31 95 bb 7d 13 71 ba 30 1c 8b 39
       0.0037515913 -0.0045529753 -0.00091963244 0.00026533147
000050 78 ef 48 3b 6b 12 59 3b 30 85 58 b9 28 74 45 3b
       0.0030660313 0.003312255 -0.00020648981 0.003012905
000060 eb 04 87 3b 35 5f 61 bb cb 7b 90 3a fb 44 c5 3a
       0.0041204593 -0.0034389023 0.0011023221 0.0015050465
000070 00 3b 67 bb b0 1d 1d 3b eb 53 5a ba 90 c0 16 3b
       -0.003528297 0.0023973994 -0.0008328545 0.002300296
000080 3f 66 9a b9 56 62 30 3b 15 59 05 bb c9 09 b4 3a
       -0.00029449348 0.0026914082 -0.0020347286 0.0013735826
000090 81 66 df 3a 73 0b e4 3a af ce 4d ba b6 13 f4 3e
       0.0017044098 0.0017398432 -0.00078509276 0.47671288
0000a0 0b 2d 43 ba f9 7f da ba a0 42 26 bd 43 f6 be 3a
       -0.00074453716 -0.0016670219 -0.040590882 0.0014569241
0000b0 ba 4a a9 3e 9f 64 66 3a 61 25 83 bb 19 ca 41 3b
       0.33064824 0.00087887974 -0.0040022586 0.0029569922
0000c0 dc 7e f6 3a 6c 7c 98 bb f5 e9 a7 3c 81 ce 46 3b
       0.0018806118 -0.004653504 0.020497302 0.0030335488
0000d0 4d 59 8c ba 4f 24 40 3b f3 73 a0 ba 47 a5 7c 3b
       -0.0010707766 0.0029318517 -0.0012241587 0.0038550661
0000e0 cd b1 4c bb c1 95 d0 38 1a 05 cb 39 e7 2f 91 ba
       -0.0031233907 9.946107e-05 0.00038722978 -0.0011076898
0000f0 d4 73 4f 3f 83 ce d5 ba 7d 0e 09 bb 64 a0 6c 3b
       0.81036115 -0.0016312156 -0.0020913177 0.0036106342

a2c_network.mu.weight f4 [6, 64]
000000 cb ac 8e 3b 65 37 0d bd 3c ab 86 bc e0 6c cd 3c
       0.0043540946 -0.034476656 -0.016439073 0.02507633
000010 67 02 b1 bb 4a a5 28 bc c4 2c f2 bc 47 16 59 3c
       -0.0054018977 -0.010293314 -0.029562362 0.01324994
000020 1f 01 38 3b 8c f7 27 3d f2 40 5f 3c ba 32 a7 bc
       0.002807684 0.041007563 0.013626324 -0.02040993
000030 6a 72 9c bc 45 f4 e8 bb 4c cd eb b9 ea a1 cb 3b
       -0.019097526 -0.0071091973 -0.0004497565 0.00621437
000040 f4 47 11 3c 21 bc ca bb 33 59 56 3d ae f9 96 3d
       0.008867253 -0.0061869775 0.05233116 0.07371841
000050 7e 3a 8b bd 15 0d ca bd 66 09 95 3b 50 21 82 ba
       -0.06798266 -0.098657764 0.0045482395 -0.0009928141
000060 bc 69 98 3c 64 27 34 bd f9 15 3a 3d fd e0 61 bc
       0.018605106 -0.04398288 0.04543111 -0.013786552
000070 fd 90 9a bc 80 63 bb 3d 1c 93 d9 bc b4 65 ed bc
       -0.018867964 0.091498375 -0.026559405 -0.02897916
000080 d3 0d 1e 3d 46 6a 99 bb 63 3c 49 3c ad 18 22 3d
       0.038587403 -0.0046818582 0.012282464 0.039574314
000090 dc 2c ce bc ea d7 02 bd 4b 01 1a 3c ba 33 5f bc
       -0.025167875 -0.031944193 0.009399722 -0.013623172
0000a0 d4 50 49 3b d1 7d b1 bc 07 02 5e bc 8d ba 08 3d
       0.0030718343 -0.02166644 -0.013550288 0.033381034
0000b0 7c 9f 39 bc a7 33 c1 3c 4b d0 18 bd 91 2b 75 3a
       -0.011329528 0.0235842 -0.03730802 0.00093525
0000c0 dc bd 46 bc 53 94 b5 3a 43 27 da 3b e3 aa 27 bd
       -0.012130227 0.0013853408 0.0066575124 -0.040934455
0000d0 e0 91 c5 3c f3 e4 7a bd 79 74 b0 3b a4 3b d1 bc
       0.02411741 -0.0612535 0.0053849784 -0.025541134
0000e0 d3 ea c6 bc 2e 46 75 bd ab 79 e5 3c 9f f9 02 3d
       -0.024281895 -0.05988138 0.028012117 0.03197634
0000f0 93 15 23 bc 06 25 b4 3c 50 97 a4 3c 1d 79 94 3b
       -0.009953874 0.02199031 0.020091683 0.0045310394
000100 d7 7b f1 3b a3 bc dd bb ec db 87 3c 12 11 41 3c
       0.007369499 -0.006766872 0.01658436 0.011783855
000110 42 c8 04 3d b8 26 a4 3b 88 62 28 3c c8 3c c3 3a
       0.032417543 0.0050094984 0.010277398 0.0014895434
000120 28 53 18 bd 14 28 ee 3b aa 4b 10 3a ab a0 07 bd
       -0.03718868 0.0072679613 0.0005504439 -0.03311221
000130 43 58 09 3c 35 12 3e 3c 19 22 a9 3c 69 44 99 3a
       0.00838286 0.011601021 0.020646142 0.0011693361
000140 e8 50 db bc 6d 24 86 3c a0 79 f6 bc 43 aa 0e bd
       -0.026771978 0.016374791 -0.030087292 -0.034830343
000150 61 eb 9e 3b b9 9e 83 bc 2f 12 81 bc 78 bf a2 3c
       0.0048498367 -0.016066896 -0.01575574 0.01986669
000160 86 ab ee bb 4a b6 c8 3c a0 2b 2f b8 10 ca d3 3c
       -0.007283631 0.024500985 -4.176388e-05 0.025853187
000170 3f 47 19 3c 97 de 33 3d d9 51 eb 3b c7 08 ba 3b
       0.009355365 0.04391345 0.007181388 0.005677316
000180 59 46 76 3c 71 de 3d 3b 3a fc 4b 3d 4d 82 7c bc
       0.015031421 0.0028971697 0.04980109 -0.0154119255
000190 18 13 87 3b 3d ae 25 bc 33 72 b5 bc 1e af 63 3c
       0.004122149 -0.010112342 -0.022149181 0.013896732
0001a0 ca 3b 6f 3c b8 fb a2 3c 32 ab 1b 3c ba 21 15 bd
       0.014601657 0.01989542 0.009501265 -0.036409117
0001b0 26 22 01 3c b0 38 95 bc 06 78 32 ba c0 59 23 bc
       0.007881677 -0.018215507 -0.0006808046 -0.009970129
0001c0 7c 89 f8 bc 19 a2 bb bb 9b ac 10 3c 7a 80 20 3d
       -0.030338995 -0.0057261107 0.008830215 0.039185025
0001d0 a2 84 22 3d 40 58 44 3c a2 c6 b8 bc b8 83 d3 3c
       0.03967727 0.011983931 -0.022555653 0.025819644
0001e0 d0 ab 57 bd 7b ce 12 3c 1a e3 31 bb 69 26 2a 3b
       -0.052654088 0.008960362 -0.002714342 0.0025962836
0001f0 4d 20 0e bc 59 8d 25 bc 96 c7 5d 3c 3a ff 92 38
       -0.008674693 -0.010104501 0.0135363545 7.009362e-05
000200 c6 3b 57 bb 9d 5d b9 3c 9e a9 1a bd a9 30 36 bd
       -0.0032842024 0.022627646 -0.037759416 -0.04448
000210 00 91 fc bb 3f c0 cb 39 02 b9 29 bc 24 94 e1 bb
       -0.007707715 0.00038862412 -0.010359051 -0.006884115
000220 67 56 c0 bb f3 57 26 bc 24 f9 cd 3c 70 d6 64 bc
       -0.005869675 -0.010152805 0.025143214 -0.0139671415
000230 b8 d1 e2 bb 06 ef fc 3c 82 9a 59 3c e4 41 3e 3d
       -0.006921973 0.030875694 0.013281466 0.046449557
000240 8c b1 02 bc ca 7b a7 bd a9 e6 6e 3d e2 4f 58 bb
       -0.007976901 -0.08177908 0.058325443 -0.0033006598
000250 72 0d bd bc 9f e1 63 bb 8c ad 3a 3b c5 c5 03 3d
       -0.0230777 -0.0034771932 0.002848479 0.03217103
000260 11 e7 c3 bc 68 01 62 bb aa 04 4a bb 77 76 9f 3c
       -0.023913892 -0.0034485701 -0.0030825534 0.019465668
000270 b7 c7 6b bb a7 b7 21 bc 16 4b 84 bb 46 43 4d bc
       -0.0035977194 -0.009870446 -0.0040372713 -0.012528246
000280 84 01 8e 3c 41 4d 2f 3c 98 8e 26 3d 84 86 39 3d
       0.017334707 0.010699571 0.04066333 0.0452943
000290 7b 02 d1 3b 7a df 20 3b c1 39 90 bc 4b 68 3c bb
       0.0063784695 0.0024547265 -0.017605664 -0.0028748687
0002a0 8e 5a 04 bd 0c 32 fb 3a e6 cf d8 bc e6 4c df bb
       -0.032312922 0.0019164695 -0.026466321 -0.006814587
0002b0 84 e5 f7 b9 df 9e 4c 3c af 8a f6 3c 11 64 9f 3b
       -0.00047282514 0.01248905 0.030095426 0.0048642238
0002c0 bc df cc bc e9 5a 6e bc f0 ba a6 3c d9 bc d8 bc
       -0.025009029 -0.014548042 0.02035281 -0.026457237
0002d0 01 37 2a 3c 26 ec e6 3b 3e 6a fd 3b 45 17 66 3c
       0.0103890905 0.007047194 0.0077336123 0.014043634
0002e0 09 2a 9b 3c 88 ed b1 3b d6 d2 16 bd 8b 64 84 bd
       0.018940942 0.0054299273 -0.036822163 -0.064644895
0002f0 fd 6a 6a 3c c4 c1 79 bc 59 0f 54 3c 61 44 14 3a
       0.014307735 -0.015243951 0.012943112 0.0005655941
000300 5a ce 49 be 6f 6f 62 3d df 41 93 bd a5 da 5d bd
       -0.19707623 0.055282053 -0.07190298 -0.054163594
000310 bd ee 7f 3d cd 93 67 3c 73 0c e4 3c 37 17 23 3c
       0.062483538 0.01413436 0.027837968 0.009954265
000320 0f 1e 01 3d b1 74 2e 3d b1 19 75 3d 04 b9 a8 bd
       0.031522807 0.042591754 0.059838954 -0.08238414
000330 7a 19 aa 3d 46 e6 46 bc 06 46 5e be 51 cd 90 3d
       0.083056405 -0.012139862 -0.217064 0.07070411
000340 0d f4 00 3e 96 45 84 3c 7a 9b c0 bc 8f 4e 06 bd
       0.12593098 0.016146462 -0.023511637 -0.032789763
000350 c8 67 e6 bb 63 79 03 3d 53 c0 8e 3d a9 09 10 be
       -0.0070314147 0.032098185 0.06970277 -0.14066185
000360 20 a8 26 3c fe 54 8c 3c 05 06 b6 3c 5f 02 a2 3d
       0.01017192 0.017130371 0.022219667 0.079106085
000370 00 b9 eb 3c 4a d7 93 bc d6 92 ae bd d6 3b 13 3d
       0.028774738 -0.018046994 -0.085241005 0.035945736
000380 5a 6e eb 3c f8 50 af 3d d4 66 a5 3d 5c d6 e1 3c
       0.028739143 0.085603654 0.080762535 0.027568035
000390 3e c7 94 3c b3 cc a7 bd 18 a1 09 3e a0 1c 59 bd
       0.018161412 -0.0819334 0.13440359 -0.053005815
0003a0 8f 19 17 3d ba c4 5b bd 42 f6 7b 3d e8 81 01 bd
       0.03688961 -0.05365441 0.061514147 -0.03161803
0003b0 a7 fc d1 bc 86 5a e6 bc 5f 9b 26 3c 06 39 a7 3b
       -0.02563317 -0.028119337 0.010168879 0.0051032333
0003c0 5e 17 c6 bd 83 08 5c 3d c9 d8 34 3e 60 f4 0d 3c
       -0.09672426 0.053719055 0.17660822 0.008664221
0003d0 d9 d2 a4 3d 6d 4b e4 3d 59 d6 32 be 96 92 0c 3d
       0.080480285 0.11147199 -0.1746458 0.034319483
0003e0 bd e0 36 bc 8b 04 11 3d e4 53 e8 bc 05 c7 1e bd
       -0.01116198 0.035404723 -0.028360315 -0.03876402
0003f0 b8 b8 8d bd 04 ee cc bd 9b ca eb 3d 28 fc a6 be
       -0.06919998 -0.100063354 0.11513253 -0.32614255

a2c_network.mu.bias f4 [6]
000000 bb 08 ba 3d cf ba 7f bd 56 70 02 3e 38 04 7b bd
       0.090836965 -0.062434014 0.12738165 -0.06128332
000010 31 a1 33 3a 3e 94 20 3d
       0.00068523275 0.039203875

exp_avg f4 [6]
000000 72 0a ef 38 58 ff 37 b9 c5 ff 43 b9 70 b4 a3 37
       0.00011398354 -0.00017547363 -0.00018691931 1.9515137e-05
000010 54 83 7c b8 13 7f 5e 39
       -6.020379e-05 0.00021218909

exp_avg_sq f4 [6]
000000 f1 2a 07 36 47 71 0a 36 50 50 02 36 e7 5f fc 35
       2.0141563e-06 2.0629539e-06 1.9418258e-06 1.8803374e-06
000010 6d 1c 0b 36 c0 e3 16 36
       2.072916e-06 2.248431e-06
